model/keypoint_classifier/keypoint_classifier.tflite (tflite, 6600 bytes, 6 tensors)

arith.constant f4 [5, 10]
0.24746057 -0.35679892 -0.70674825 0.32390252 0.18137987 0.6352438 -1.22591 0.61673117
-0.7287161 0.5912959 0.36687714 0.70809567 0.7384091 -1.8044249 -1.528552 -1.2550178
0.20649892 -2.1851819 -0.9444044 0.23457317 -1.9274917 0.92908794 0.6183881 0.18057911
1.406165 -1.8097706 0.5505104 -1.2660366 -0.8951564 -0.3032853 -0.009552852 -1.495562
0.96676916 0.96028537 -0.19547385 0.35532016 0.27473974 -0.47788507 0.27458572 -1.1571544
0.62653357 -0.51410156 -0.8882985 -0.7087172 0.17786722 0.43037766 -0.14962651 -0.1621015
1.1692939 -0.7789478
00000000: 4e66 7d3e 59ae b6be 74ed 34bf 8dd6 a53e
00000010: a5bb 393e 569f 223f 9eea 9cbf 18e2 1d3f
00000020: 238d 3abf 2b5f 173f 52d7 bb3e c245 353f
00000030: 6108 3d3f 65f7 e6bf 98a7 c3bf 6ca4 a0bf
00000040: 7474 533e 05da 0bc0 7dc4 71bf f333 703e
00000050: 0cb8 f6bf b5d8 6d3f af4e 1e3f bbe9 383e
00000060: 37fd b33f 90a6 e7bf 40ee 0c3f 7d0d a2bf
00000070: f828 65bf 3648 9bbe 9183 1cbc 936e bfbf
00000080: 2f7e 773f 43d5 753f 4c2a 48be 86ec b53e
00000090: b0aa 8c3e 5aad f4be 8096 8c3e a31d 94bf
000000a0: 8164 203f 299c 03bf 8867 63bf 7e6e 35bf
000000b0: d322 363e 765a dc3e b137 19be f0fd 25be
000000c0: 6cab 953f 1f69 47bf

arith.constant1 f4 [10, 20]
0.11058581 0.8729684 -0.44401377 0.07088998 0.31831953 1.0235213 -0.037677214 1.2532659
1.0835323 0.69831115 -0.022835977 0.11970108 -0.0046156803 0.64644307 -0.35694787 1.2177513
-0.7137764 0.19834848 -0.20947394 0.87375057 0.14295496 -0.12781964 -0.16895461 0.43574342
-0.66564476 -0.862536 -0.10323569 -1.3441943 -0.2118165 -0.07883997 0.96150935 0.054994155
1.0025686 -1.0177634 0.14081153 -0.76611894 -0.127165 -0.22086228 -0.11627757 0.35257834
0.30088416 0.600465 0.5860428 0.6963266 0.68122244 -0.26799226 0.93008333 -0.25748223
0.32939568 0.056740765 0.0028407944 0.51295644 0.6315689 -0.123905204 -0.067661084 -0.5616694
1.1231434 -0.1173049 0.23766711 -0.53077877 1.3552167 0.28105858 0.529115 0.27001145
0.68771654 0.15340021 1.0661955 0.4697734 0.1440421 0.111400284 0.25507218 1.2363331
0.2711617 0.013385853 0.28257316 0.26839578 0.6835973 0.57043743 1.522256 -0.15618053
0.32565907 -0.27883643 0.23564439 0.23016399 -0.35268962 -1.7460243 -0.03147206 -0.6713364
-1.2193266 -0.75553864 0.02172767 0.8908507 0.14489344 -1.8257393 0.84105533 -0.93172425
-0.01867276 1.0153062 0.21801488 -0.11125953 0.6737941 -0.16790879 0.19421376 0.0012667231
0.9572942 1.0961179 0.46568543 1.8005047 0.5398165 -0.30653974 -0.005857786 0.18224086
-0.084892966 1.2984816 0.3225135 0.55917764 0.25875923 -0.62506646 0.020178663 0.20856181
-0.014005301 -0.7674112 -0.10546871 0.60267574 -0.5527981 -0.57980734 0.019221699 -0.43340492
0.05987084 -0.36363345 -0.065201186 -0.14563033 0.5210883 -0.1829474 -0.043133166 -0.47167787
-0.14831783 -0.0019434823 -0.40052825 0.12586077 -0.20463958 0.14856729 -0.23536418 0.44020846
-0.31103617 0.40293396 0.44005924 0.79219294 0.8181039 0.5716074 0.007695869 0.6779979
0.6374384 0.12665685 1.0051697 0.9997936 -0.49996933 0.74391013 0.2156838 0.002089216
-0.73310614 0.7038834 0.66834736 -2.1224267 0.7204359 0.2636763 -0.6201 0.5299666
0.34022582 0.34187016 -1.7361532 -0.035613023 -1.4095744 0.4214733 0.5280963 0.5138371
0.44363058 0.7078797 -0.90683085 0.30867222 0.36459628 -0.29098812 -0.28890476 1.3156482
-0.559901 0.110989675 0.05159962 -0.10600253 0.08754702 0.17734678 0.924943 -0.1975227
1.6485068 0.45875895 -0.10014525 0.12847921 -0.32196975 0.28652456 0.28377438 0.8147214
00000000: d07a e23d db7a 5f3f c655 e3be c42e 913d
00000010: c7fa a23e bf02 833f 6c53 1abd 046b a03f
00000020: 30b1 8a3f 85c4 323f 8412 bbbc d725 f53d
00000030: 223f 97bb 4b7d 253f dfc1 b6be 46df 9b3f
00000040: 0dba 36bf dd1b 4b3e 5680 56be 1eae 5f3f
00000050: c962 123e 27e3 02be 7002 2dbe c319 df3e
00000060: b267 2abf 29cf 5cbf 3c6d d3bd 8f0e acbf
00000070: 6de6 58be da76 a1bd 7a25 763f 8d41 613d
00000080: 2b54 803f 1246 82bf e630 103e 5f20 44bf
00000090: 8b37 02be b929 62be ef22 eebd 2685 b43e
000000a0: 7d0d 9a3e 13b8 193f e706 163f 7642 323f
000000b0: 9864 2e3f 4836 89be f119 6e3f b6d4 83be
000000c0: 8da6 a83e 0169 683d 9f2c 3a3b 1d51 033f
000000d0: 80ae 213f 03c2 fdbd e591 8abd 91c9 0fbf
000000e0: 2ac3 8f3f 8d3d f0bd 025f 733e 1ee1 07bf
000000f0: be77 ad3f e9e6 8f3e 1574 073f f13e 8a3e
00000100: 310e 303f f214 1d3e 1879 883f 2486 f03e
00000110: c67f 133e d525 e43d d298 823e 2a40 9e3f
00000120: b5d5 8a3e 5650 5b3c 6ead 903e 2c6b 893e
00000130: 3c00 2f3f 3008 123f 49d9 c23f caed 1fbe
00000140: c9bc a63e a6c3 8ebe c34c 713e 1cb0 6b3e
00000150: bc93 b4be b97d dfbf d9e8 00bd b4dc 2bbf
00000160: e512 9cbf fb6a 41bf 3afe b13c cb0e 643f
00000170: f25e 143e d3b1 e9bf 674f 573f 7b85 6ebf
00000180: 9ef7 98bc 8ef5 813f 4b3f 5f3e 09dc e3bd
00000190: c57d 2c3f 48f0 2bbe f9df 463e 2d08 a63a
000001a0: 3c11 753f 974d 8c3f 526e ee3e f076 e63f
000001b0: 6a31 0a3f c7f2 9cbe acf2 bfbb 599d 3a3e
000001c0: 5ddc adbd a534 a63f 7d20 a53e 4426 0f3f
000001d0: 177c 843e 5b04 20bf b94d a53c 3a91 553e
000001e0: 7d76 65bc 0f75 44bf fbff d7bd f548 1a3f
000001f0: 2d84 0dbf 416e 14bf d376 9d3c 40e7 ddbe
00000200: 203b 753d 2a2e babe 3388 85bd 1e20 15be
00000210: 0b66 053f 9056 3bbe 67ac 30bd c37f f1be
00000220: a1e0 17be 72bc feba 0a12 cdbe a5e1 003e
00000230: 0a8d 51be 0622 183e 4f03 71be 0163 e13e
00000240: 2240 9fbe 5c4d ce3e 724f e13e 28cd 4a3f
00000250: 426f 513f dd54 123f a12d fc3b 4591 2d3f
00000260: 2a2f 233f 55b2 013e 67a9 803f 79f2 7f3f
00000270: fbfb ffbe e570 3e3f 37dc 5c3e 3aeb 083b
00000280: d8ac 3bbf b431 343f d018 2b3f d7d5 07c0
00000290: 7d6e 383f 9400 873e e0be 1ebf e4ab 073f
000002a0: 1432 ae3e 9b09 af3e 453a debf f6de 11bd
000002b0: ef6c b4bf 59cb d73e 5231 073f d48a 033f
000002c0: 8c23 e33e 9b37 353f 1126 68bf 490a 9e3e
000002d0: 5dac ba3e 65fc 94be 53eb 93be 2967 a83f
000002e0: ac55 0fbf 8e4e e33d 205a 533d db17 d9bd
000002f0: da4b b33d 659a 353e 10c9 6c3f 6443 4abe
00000300: 4502 d33f 74e2 ea3e f418 cdbd 0e90 033e
00000310: 38d9 a4be 59b3 923e e04a 913e 9591 503f

arith.constant2 f4 [5]
-0.41047463 0.6622085 0.22384125 -0.37708896 -0.10705057
00000000: bb29 d2be 7f86 293f a436 653e ce11 c1be
00000010: 543d dbbd

sequential_1/dense_1_2/BiasAdd/ReadVariableOp f4 [10]
0.4220222 1.1529541 1.0334802 -0.03104041 0.4699068 -0.21962464 -0.03548204 -0.685911
0.34922552 0.49582526
00000000: 4b13 d83e 0094 933f 1449 843f 7548 febc
00000010: a097 f03e 48e5 60be 9e55 11bd dd97 2fbf
00000020: b0cd b23e cfdc fd3e

sequential_1/dense_1/BiasAdd/ReadVariableOp f4 [20]
-0.33766112 -0.7803663 -0.58093 -0.3603763 -0.83516127 -0.5608782 -0.7557965 -0.72511613
-0.895116 -0.8786616 -0.60095984 -0.6639791 -0.6600845 -0.61747956 -0.6387393 -0.36526632
-0.7659937 -0.33601227 -0.6615874 -0.3869253
00000000: ebe1 acbe 16c6 47bf d4b7 14bf 3e83 b8be
00000010: 21cd 55bf b795 0fbf e17b 41bf 36a1 39bf
00000020: 5226 65bf f7ef 60bf 81d8 19bf 89fa 29bf
00000030: 4cfb 28bf 2413 1ebf 6b84 23bf 3004 bbbe
00000040: 2a18 44bf cd09 acbe cb5d 29bf 131b c6be

sequential_1/dense_1/MatMul f4 [20, 42]
0.20099843 -0.08674058 0.8066815 0.47254968 0.9978356 0.0027219877 0.8239209 -0.22893779
0.60013974 -0.091253474 0.53191143 -0.0793302 0.11363388 -0.079505645 -0.2028104 -0.12528062
-0.33345437 0.016360652 0.32355407 0.06853506 -0.036944464 0.06770447 -0.22374138 0.15448666
-0.28565136 0.105477594 0.10503502 0.05046274 0.013772719 0.11468173 -0.06275606 0.16535346
-0.07990233 0.09295954 -0.15367882 0.2008391 -0.1430971 0.21264385 -0.19271041 0.22309247
-0.18608646 0.19315343 0.08981916 -0.24009396 -0.073822774 -0.3462118 -0.04757873 0.032858048
-0.24577847 -0.123845465 -0.27602655 -0.29738662 0.06808247 0.09363172 0.16051756 0.12059719
0.27668306 0.21029949 0.27231863 -0.0039030865 -0.044426117 -0.040338304 -0.09330697 -0.08264472
0.032873426 -0.023143388 0.115512244 -0.017152412 -0.2401607 -0.2574312 -0.18001479 -0.19174145
-0.020097883 -0.039202336 0.099158116 0.03777174 -0.51144 -0.37196732 -0.29939657 -0.33282617
-0.13860732 -0.22126664 -0.08512301 -0.035927888 -0.17045191 0.29913402 -0.4533804 0.19146793
-0.48985547 -0.2394392 -0.42151546 0.0449558 -0.21186666 -0.103707485 -0.4558631 -0.48867413
-0.17690726 -0.32356128 0.11780318 0.09711553 0.16788213 -0.1616466 -0.3785113 -0.43803805
-0.009704742 0.07429526 0.31283712 0.30940008 0.35703236 0.272503 -0.26565033 -0.36747077
-0.15418501 0.075364694 0.13021058 0.24811582 0.13392045 0.12872027 -0.3140859 -0.105742104
-0.33040142 0.13607198 -0.045376584 0.22350892 0.022632757 0.13854519 -0.06031233 0.25575274
0.16799799 0.7546874 -0.0011866504 0.3406489 -0.02903212 0.23329015 -0.048097212 0.2133676
0.018608367 0.07888065 0.0066315667 0.05381045 0.051824477 0.053995058 -0.08612345 -1.3106384
-0.011169347 0.047723234 0.026267495 0.044835385 0.021068487 0.06305751 0.03389411 0.05061809
-0.008758897 0.05165032 -0.018645233 0.023590198 -0.009890944 0.028921867 0.011570468 0.027670246
-0.0072354143 -0.014010858 -0.011184455 -0.017443577 0.013365666 0.0062729223 -0.01697604 0.02226137
-0.16773637 0.15419614 -0.028299658 0.010574186 0.073708646 0.029834323 0.17164625 -0.05652633
0.21286832 -0.13807309 0.053086262 0.068382606 -0.023152817 0.048595376 -0.16893403 0.15416019
-0.19277318 0.001841618 0.054983314 -0.11963756 0.09179305 -0.014856028 -0.09435079 0.13503192
-0.13511929 0.077487595 0.22963332 -0.20784816 0.15787643 -0.28914854 0.013411937 0.08151446
-0.060106315 0.0026322564 0.42747828 -0.6733162 0.2400542 -0.4366571 0.08383295 -0.033351198
0.09847598 -0.03782978 0.05824858 0.05596146 -0.14730549 -0.42773947 -0.022494039 -0.045878273
-0.003120385 0.024621936 0.009731781 0.03396414 0.088180006 -0.07617157 0.06435139 0.02793242
0.05081499 0.043661233 0.054743186 0.013668034 0.1180287 -0.01347738 0.081142396 0.03202139
0.04639755 -0.009329591 0.09023249 -0.058621127 0.20159286 0.00052852696 0.015767504 0.04761202
-0.7184424 0.058365777 -1.0322117 -0.34720844 0.16534682 0.071633376 0.059068233 0.06070449
-0.17871223 -0.021897295 -0.4964226 -0.9509575 -0.21899597 -0.2724072 -0.8041213 1.4859031
00000000: 88d2 4d3e 0ca5 b1bd ae82 4e3f 08f2 f13e
00000010: 2772 7f3f 6063 323b 7bec 523f ab6e 6abe
00000020: c2a2 193f 1ae3 babd 592b 083f df77 a2bd
00000030: e1b8 e83d dbd3 a2bd 88ad 4fbe 9049 00be
00000040: 88ba aabe c606 863c e1a8 a53e 1c5c 8c3d
00000050: 1453 17bd a4a8 8a3d 761c 65be c031 1e3e
00000060: e540 92be a304 d83d 9a1c d73d 05b2 4e3d
00000070: f8a6 613c 41de ea3d 4086 80bd 6b52 293e
00000080: d5a3 a3bd 9261 be3d fb5d 1dbe c4a8 4d3e
00000090: 0c88 12be 4fbf 593e e155 45be 5a72 643e
000000a0: 738d 3ebe 03ca 453e 1cf3 b73d 31db 75be
000000b0: 6530 97bd ac42 b1be eae1 42bd 2996 063d
000000c0: 5aad 7bbe b1a2 fdbd 5a53 8dbe 0f43 98be
000000d0: d26e 8b3d fdc1 bf3d b75e 243e a9fb f63d
000000e0: 67a9 8d3e c058 573e 596d 8b3e edca 7fbb
000000f0: 29f8 35bd c739 25bd ba17 bfbd a341 a9bd
00000100: 49a6 063d 3497 bdbc af91 ec3d 3783 8cbc
00000110: b0ec 75be 06ce 83be cc55 38be df57 44be
00000120: 51a4 a4bc a192 20bd 6913 cb3d 8ab6 1a3d
00000130: bbed 02bf 8072 bebe 824a 99be 3168 aabe
00000140: 14ef 0dbe b993 62be f954 aebd 1f29 13bd
00000150: f28a 2ebe 1828 993e 7a21 e8be 2b10 443e
00000160: 56ce fabe 8d2f 75be e0d0 d7be 9323 383d
00000170: 93f3 58be 9764 d4bd e366 e9be 7f33 fabe
00000180: 2d27 35be d3a9 a5be cb42 f13d 82e4 c63d
00000190: 4be9 2b3e b086 25be 3ccc c1be 8646 e0be
000001a0: a300 1fbc 1d28 983d 302c a03e b069 9e3e
000001b0: f2cc b63e 8385 8b3e 5203 88be 2125 bcbe
000001c0: ade2 1dbe ce58 9a3d ec55 053e 1312 7e3e
000001d0: 7122 093e 3fcf 033e decf a0be 518f d8bd
000001e0: 602a a9be 7456 0b3e ccdc 39bd 86df 643e
000001f0: 5568 b93c cade 0d3e 100a 77bd 06f2 823e
00000200: aa07 2c3e 3233 413f 6189 9bba 8869 ae3e
00000210: c5d4 edbc 9de3 6e3e 9501 45bd 097d 5a3e
00000220: 9370 983c 2e8c a13d 9d4d d93b 5968 5c3d
00000230: e745 543d ec29 5d3d 7e61 b0bd 00c3 a7bf
00000240: a3ff 36bc 7079 433d ee2e d73c 4fa5 373d
00000250: d297 ac3c 4c24 813d 8dd4 0a3d ea54 4f3d
00000260: 7a81 0fbc 498f 533d e3bd 98bc 3b40 c13c
00000270: a00d 22bc 8ded ec3c 0f92 3d3c b6ac e23c
00000280: 0e17 edbb cc8d 65bc 013f 37bc d5e5 8ebc
00000290: abfb 5a3c 168d cd3b 5611 8bbc 7a5d b63c
000002a0: 15c3 2bbe 98e5 1d3e afd4 e7bc 5a3f 2d3c
000002b0: 8ff4 963d 1c67 f43c 09c4 2f3e 2788 67bd
000002c0: 27fa 593e 0863 0dbe fb70 593d 2e0c 8c3d
000002d0: faaa bdbc f20b 473d 0bfd 2cbe 2bdc 1d3e
000002e0: 5566 45be 7262 f13a 2f36 613d 8904 f5bd
000002f0: fffd bb3d b366 73bc fd3a c1bd cf45 0a3e
00000300: b65c 0abe d1b1 9e3d ff24 6b3e 26d6 54be
00000310: 5caa 213e 470b 94be bebd 5b3c 0ef1 a63d
00000320: 0a32 76bd ef81 2c3b 6fde da3e 735e 2cbf
00000330: c5d0 753e 8591 dfbe 9cb0 ab3d 449b 08bd
00000340: c6ad c93d 66f3 1abd 1096 6e3d d837 653d
00000350: 40d7 16be ab00 dbbe 6b45 b8bc dbea 3bbd
00000360: 607f 4cbb f1b3 c93c 0c72 1f3c fb1d 0b3d
00000370: b897 b43d d7ff 9bbd a9ca 833d 88d2 e43c
00000380: 6123 503d 1fd6 323d 643a 603d e4ef 5f3c
00000390: 08b9 f13d 3bd0 5cbc fc2d a63d dc28 033d
000003a0: 5b0b 3e3d 24db 18bc d0cb b83d b51c 70bd
000003b0: 5c6e 4e3e d88c 0a3a da2a 813c d204 433d
000003c0: d7eb 37bf f410 6f3d 831f 84bf 4ec5 b1be
000003d0: ad50 293e 85b4 923d 88f1 713d 45a5 783d
000003e0: 5700 37be f561 b3bc 1a2b febe f371 73bf
000003f0: 7b40 60be f578 8bbe e5da 4dbf 1332 be3f
