model/keypoint_classifier/keypoint_classifier.tflite (tflite, 6600 bytes, 6 tensors)

arith.constant f4 [5, 10]
0.417573 0.78384554 0.5611566 1.0662177 0.903135 0.2631732 -0.2592582 0.42297935
-0.4959613 -1.4019746 0.116486795 -2.007896 -1.232421 0.53756213 -2.1268144 0.15124209
-0.8916242 1.188659 -0.4389011 0.113028854 -2.4063492 -1.0071284 0.2452704 -0.30095968
-1.2308058 0.78012455 0.122805454 -1.7900703 1.3358539 0.29972586 0.5514875 0.17398654
1.4425207 -0.19746815 0.10833891 -1.585072 1.3149482 0.106763154 0.3789729 -0.34222472
0.53189 0.35146648 -0.42094293 -2.4202805 0.55869454 0.14837721 0.7441034 0.7621993
-0.8233124 -1.3640077
00000000: 21cc d53e 1aaa 483f f5a7 0f3f d279 883f
00000010: db33 673f a3be 863e 7ebd 84be c090 d83e
00000020: a4ee fdbe e773 b3bf a190 ee3d 5e81 00c0
00000030: f9bf 9dbf ac9d 093f ba1d 08c0 35df 1a3e
00000040: 7c41 64bf fa25 983f a5b7 e0be ac7b e73d
00000050: a001 1ac0 95e9 80bf 2a28 7b3e 6317 9abe
00000060: 0b8b 9dbf 3eb6 473f 6d81 fb3d 0621 e5bf
00000070: 43fd aa3f ab75 993e 492e 0d3f 8729 323e
00000080: 85a4 b83f 1735 4abe cae0 dd3d a4e3 cabf
00000090: 3950 a83f a4a6 da3d bc08 c23e 1438 afbe
000000a0: f129 083f 6af3 b33e d585 d7be e0e5 1ac0
000000b0: 9b06 0f3f 32f0 173e 8f7d 3e3f 7e1f 433f
000000c0: 9ac4 52bf ce97 aebf

arith.constant1 f4 [10, 20]
0.60289 0.3052693 -0.14061223 1.190074 0.26555365 0.3809598 0.02279929 -0.011291
0.00642305 -0.45508257 0.1362511 0.6342167 0.45462453 0.9631339 -0.3228494 1.3642186
-0.38472304 -0.0730318 -0.20485832 1.185142 1.4375314 0.587231 -0.17960589 0.9233048
0.94753104 0.990524 0.061742794 0.73839414 0.14558606 0.61772627 -0.033360075 0.6159567
0.1906323 0.087110154 -0.019723134 0.73009235 0.076132625 -0.16344409 1.1174378 0.6966153
0.109583706 -0.8252239 0.90525275 0.08912514 0.86297566 -0.09427248 0.37555844 0.37323102
0.19832599 1.0778719 0.988561 -0.095179915 1.0614151 -0.041297857 -0.09909972 0.2725005
0.8405839 0.070729345 0.1202175 0.08763705 -0.035057385 -0.08126582 0.010867807 -0.022296486
-0.24356869 0.049996622 1.2489047 -0.009461941 0.8885114 0.73300093 -0.24538976 0.023057185
0.5666442 0.039876394 -0.00084226305 -0.007143724 -0.45000324 0.9830165 0.124031946 -0.014648737
-0.70995474 0.075673774 -0.11556098 -0.16514535 -0.074253 0.8693145 0.034360107 0.76322097
0.22563538 0.3066399 0.04595939 0.64251024 0.03244958 1.3099957 0.082397684 0.6252347
0.92897177 0.024349375 0.19360662 0.4232433 -0.4230689 -0.05527944 -0.16296585 0.3206195
0.43617386 -0.36376753 0.9859718 -0.2813342 0.7536638 -0.10953084 -0.32685792 0.49326915
-0.1741699 -0.49496287 1.1354603 0.14148575 0.5420728 0.7769357 0.2863441 0.2404411
-0.0035629016 0.6937749 0.56991416 0.0361643 -0.35391578 0.86462355 -1.1034796 0.6849658
-1.3065406 -0.18643898 0.17006032 0.23371029 -0.15269102 0.22052644 -0.023612225 0.32143122
-0.044267442 -0.48833224 0.58274305 0.021108905 1.1313578 -0.0944561 -0.52060837 1.107376
-0.370628 0.54903513 0.08861551 1.2223321 0.11791661 -0.30385506 0.58412284 1.11146
-0.6461129 1.0995332 0.7815502 1.0864624 -0.29435644 -0.054317147 -0.40230238 1.252949
-0.25979915 0.8719179 0.1417871 -0.31743464 0.7525208 -0.26406747 0.48324072 -0.08625395
0.78083 0.62454 0.67998534 -0.43546027 0.75035495 -0.22663908 -0.7743771 0.06500863
0.16237484 0.3995648 0.9073415 -0.12802084 -0.2679219 0.40238753 0.043447707 -0.4805053
-0.033578105 -0.34861577 0.7910998 -0.15039712 0.51958126 0.3064686 0.73910743 -0.17044897
0.29075506 -0.25570986 -0.27733833 0.0427117 -0.26047605 -0.12533648 -0.4400214 -0.0731479
00000000: 0057 1a3f 424c 9c3e a7fc 0fbe 5854 983f
00000010: a6f6 873e 2a0d c33e 94c5 ba3c e3fd 38bc
00000020: 7378 d23b 9500 e9be 6985 0b3e 075c 223f
00000030: 8cc4 e83e f18f 763f 844c a5be b79e ae3f
00000040: 6bfa c4be b291 95bd 61c6 51be bcb2 973f
00000050: 0701 b83f c554 163f 9bea 37be b45d 6c3f
00000060: 6591 723f fb92 7d3f 03e6 7c3d 6607 3d3f
00000070: 8314 153e 4f23 1e3f 93a4 08bd 57af 1d3f
00000080: 1d35 433e cf66 b23d 6992 a1bc 55e7 3a3f
00000090: 6ceb 9b3d e35d 27be 3408 8f3f 6155 323f
000000a0: 6c6d e03d e041 53bf a5be 673f 3e87 b63d
000000b0: f9eb 5c3f ee11 c1bd 3249 c03e 2318 bf3e
000000c0: f815 4b3e b5f7 893f 5512 7d3f b0ed c2bd
000000d0: 73dc 873f f127 29bd cbf4 cabd 2f85 8b3e
000000e0: 8230 573f 8cda 903d 9834 f63d 0e7b b33d
000000f0: 5598 0fbd b26e a6bd e30e 323c 1fa7 b6bc
00000100: 126a 79be 42c9 4c3d 1cdc 9f3f 4206 1bbc
00000110: 7c75 633f f3a5 3b3f 7447 7bbe 6ce2 bc3c
00000120: 980f 113f 6e55 233d 51cb 5cba e615 eabb
00000130: d366 e6be f8a6 7b3f 7604 fe3d 4201 70bc
00000140: 98bf 35bf dafa 9a3d 3cab ecbd dd1b 29be
00000150: f511 98bd 658b 5e3f 2fbd 0c3d 7362 433f
00000160: f60c 673e e8ff 9c3e ea3f 3c3d 8d7b 243f
00000170: dae9 043d f0ad a73f 1ec0 a83d 620f 203f
00000180: 18d1 6d3f 5778 c73c d040 463e 59b3 d83e
00000190: 7d9c d8be b26c 62bd 85e0 26be 3d28 a43e
000001a0: 2e52 df3e bd3f babe a668 7c3f 090b 90be
000001b0: 1cf0 403f b451 e0bd ec59 a7be c68d fc3e
000001c0: 9859 32be c66b fdbe c356 913f a4e1 103e
000001d0: 48c5 0a3f 42e5 463f b29b 923e 3136 763e
000001e0: 927f 69bb 3b9b 313f e5e5 113f 0421 143d
000001f0: 7334 b5be f857 5d3f d23e 8dbf eb59 2f3f
00000200: b93c a7bf dce9 3ebe 4b24 2e3e c051 6f3e
00000210: 095b 1cbe afd1 613e 6d6e c1bc a292 a43e
00000220: c751 35bd af06 fabe a62e 153f 95ec ac3c
00000230: 55d0 903f 3372 c1bd 9746 05bf 7fbe 8d3f
00000240: f4c2 bdbe 918d 0c3f 0c7c b53d 6175 9c3f
00000250: 437e f13d e492 9bbe 1389 153f 5244 8e3f
00000260: a867 25bf 81bd 8c3f ad13 483f 3311 8b3f
00000270: e3b5 96be a87b 5ebd 94fa cdbe a260 a03f
00000280: 6504 85be 0336 5f3f a330 113e cb86 a2be
00000290: 34a5 403f da33 87be 546b f73e e9a5 b0bd
000002a0: 7ae4 473f dae1 1f3f 8513 2e3f a6f4 debe
000002b0: 4317 403f 1314 68be 943d 46bf 3f23 853d
000002c0: 9745 263e c293 cc3e 8847 683f e517 03be
000002d0: 0f2d 89be bd05 ce3e 39f6 313d ca04 f6be
000002e0: 3289 09bd c47d b2be 8485 4a3f b401 1abe
000002f0: 4703 053f 74e9 9c3e 2536 3d3f 2d8a 2ebe
00000300: d9dd 943e 67ec 82be 4aff 8dbe 77f2 2e3d
00000310: 1e5d 85be 3558 00be 7c4a e1be 91ce 95bd

arith.constant2 f4 [5]
-0.66757464 0.7186744 0.5052958 -0.64545333 0.0010997894
00000000: 2ce6 2abf 0cfb 373f 115b 013f 6e3c 25bf
00000010: cf26 903a

arith.constant3 f4 [10]
0.18709539 -0.33893934 -0.06373583 0.12854475 -0.3687913 0.71384495 0.35348248 0.5840471
0.6638687 1.1921962
00000000: ef95 3f3e 7589 adbe ee87 82bd 3ca1 033e
00000010: 37d2 bcbe 8bbe 363f a8fb b43e 1c84 153f
00000020: 4df3 293f e399 983f

sequential_1_1/dense_3_1/BiasAdd/ReadVariableOp f4 [20]
-0.7602521 -0.8607149 -0.52407795 -0.27749762 -0.4765111 -0.64894783 -0.418602 -1.0028772
-0.57505673 -0.6999699 -0.85773754 -0.5016772 -0.5931213 -0.5611154 -0.18583398 -0.779028
-0.11172282 -0.51757985 -0.75297946 -0.55615354
00000000: e29f 42bf d057 5cbf f929 06bf 2b14 8ebe
00000010: 43f9 f3be 7221 26bf 0053 d6be 485e 80bf
00000020: eb36 13bf 3a31 33bf b094 5bbf eb6d 00bf
00000030: ccd6 17bf 42a5 0fbf 434b 3ebe 616e 47bf
00000040: efce e4bd 1d80 04bf 43c3 40bf 1460 0ebf

sequential_1_1/dense_3_1/MatMul f4 [20, 42]
0.02014181 0.26810944 0.17923798 0.14924511 0.06130264 0.068868406 0.057288326 0.024742885
0.057163313 0.004022661 -0.12785108 0.052722592 -0.10265098 0.056443952 -0.085803315 0.072814465
-0.06614285 0.04358825 -0.16150245 0.0038525618 -0.053053968 0.008043288 -0.028591065 0.03378355
0.08209826 -0.0005392569 -0.17450619 -0.01058053 -0.06480494 -0.03703611 0.24335368 -0.85729855
1.0612755 0.3556569 -0.2014986 -0.02788551 -0.07485664 0.0001869344 0.19283931 -0.28105828
1.0951453 -0.7775072 -0.14157297 -0.2954726 -0.14810312 -0.57004875 -0.21934633 -0.6004445
0.11477595 -0.7905173 -0.013051285 -0.28364867 -0.01572898 -0.399534 -0.025327655 -0.095036194
0.012030214 0.14092839 0.02822039 0.12008304 0.047049046 -0.25160462 0.037897184 0.041664824
0.12782794 0.3142871 0.14807776 0.26245004 -0.0053645535 -0.28113732 -0.09887801 -0.09453332
-0.074981794 0.15367156 -0.016358653 0.08130432 -0.10987643 -0.45798245 -0.18137631 -0.29599693
-0.056905434 -0.08298101 -0.057849634 -0.2203669 0.036898106 0.1398266 -0.51456183 -0.09232619
-0.53563356 -0.476299 -0.63296175 -0.23432763 -0.06435833 -0.2368844 -0.38188443 -0.29851767
-0.060320027 -0.14319187 0.1446048 0.04873815 0.20859356 0.009424971 -0.31018984 -0.28109783
-0.0007019822 0.0633057 0.24594533 0.21044406 0.25309226 0.115697175 -0.20669135 -0.20810074
-0.058741722 0.11351079 0.08022556 0.24053738 0.0010815727 0.13088109 -0.19980626 -0.12626268
-0.0806879 0.0731045 0.05969957 0.24988021 0.021612305 0.1897814 -0.14450076 0.22553414
-0.019795008 -0.56221575 -0.0048770187 0.069021866 -0.026152603 0.11345401 -0.009094454 0.10155373
0.04447085 0.15245761 0.059306882 0.08656148 0.05628439 0.045923825 0.057580642 -0.009855289
-0.008705185 0.20245357 0.0071321363 0.1347537 0.06455301 0.055624735 -0.10220362 -0.08999677
-0.08731687 0.2093042 -0.04138644 0.14674075 -0.10351894 -0.32813945 0.52488446 -1.5639606
-0.08734185 0.24444883 -0.056694098 0.18320428 0.103191175 -0.0673337 -0.2343601 0.15631407
0.20921385 0.0634923 -0.10633474 1.3108301 -0.3744465 0.8923382 -0.53344214 0.637453
-0.81866676 0.6191377 -0.14629416 0.03167056 0.02089283 -0.073716834 0.08614377 -0.27405617
0.10143541 -0.5237961 -0.12910996 0.041099694 -0.022565238 0.092738986 0.014502738 0.09159931
0.017884333 -0.0062448164 -0.047714695 -0.009514484 0.10647213 0.04639112 0.22843434 0.045513716
0.28328648 -0.022840854 0.13190773 -0.11133555 0.2084277 -0.062229708 0.2984457 -0.05238485
0.33094952 -0.07170757 -0.2500143 -0.24376011 -0.4660415 -0.33328286 -0.27335328 0.007456401
-0.14855364 0.06392534 -0.040889695 0.04564122 0.055395313 -0.3965935 0.06529 0.06478495
0.1323696 0.13085869 0.1346547 0.051712807 0.073764324 -0.28609288 0.01766759 0.038083766
0.09517648 0.13828926 0.07873576 0.095784195 0.09179326 -0.24673466 -0.15458024 0.002468698
-0.36685944 0.32840994 -0.48501953 -1.0063758 0.04468059 -0.14979528 -0.20000532 0.09233687
-0.54632413 0.016961323 -0.5783261 0.109072596 0.046847016 -0.2674822 0.17205457 0.70044875
00000000: 7000 a53c a445 893e 298a 373e b6d3 183e
00000010: 7a18 7b3d e10a 8d3d 2aa7 6a3d 97b1 ca3c
00000020: 1424 6a3d 87d0 833b 65eb 02be a5f3 573d
00000030: ad3a d2bd c631 673d a6b9 afbd c01f 953d
00000040: e775 87bd 9889 323d e660 25be 437b 7c3b
00000050: 1e4f 59bd ffc7 033c cf37 eabc 9f60 0a3d
00000060: 2223 a83d eb5c 0dba c0b1 32be f659 2dbc
00000070: 74b8 84bd 2db3 17bd b531 793e eb77 5bbf
00000080: e0d7 873f a918 b63e a655 4ebe 2770 e4bc
00000090: 704e 99bd d203 4439 ab77 453e dfe6 8fbe
000000a0: b92d 8c3f b60a 47bf 81f8 10be 2f48 97be
000000b0: 58a8 17be b7ee 11bf 539c 60be bbb6 19bf
000000c0: a70f eb3d 575f 4abf 0fd5 55bc 663a 91be
000000d0: 10da 80bc b88f ccbe f17b cfbc 56a2 c2bd
000000e0: 601a 453c 884f 103e 732e e73c 19ee f53d
000000f0: 80b6 403d 52d2 80be 143a 1b3d bca8 2a3d
00000100: 54e5 023e 3dea a03e b2a1 173e da5f 863e
00000110: 23c9 afbb 3bf1 8fbe 8e80 cabd af9a c1bd
00000120: 0e90 99bd 145c 1d3e 9502 86bc e182 a63d
00000130: e506 e1bd ad7c eabe b6ba 39be e98c 97be
00000140: ac15 69bd f3f1 a9bd bdf3 6cbd dca7 61be
00000150: 7822 173d b42e 0f3e 53ba 03bf 8315 bdbd
00000160: 481f 09bf 76dd f3be c809 22bf 95f3 6fbe
00000170: 4dce 83bd d391 72be 5b86 c3be 4fd7 98be
00000180: 2212 77bd e4a0 12be 4813 143e a8a1 473d
00000190: 8d99 553e 326b 1a3c 34d1 9ebe 0eec 8fbe
000001a0: 3a05 38ba 6ba6 813d 18d9 7b3e a67e 573e
000001b0: 4f95 813e a4f2 ec3d e6a6 53be 5c18 55be
000001c0: 299b 70bd 5878 e83d 4c4d a43d 6e4f 763e
000001d0: 8fc3 8d3a b105 063e 039a 4cbe 014b 01be
000001e0: b33f a5bd d0b7 953d 8987 743d 99e0 7f3e
000001f0: 4a0c b13c 0e56 423e 02f8 13be 6cf2 663e
00000200: 2429 a2bc 5fed 0fbf 66cf 9fbb 565b 8d3d
00000210: fc3d d6bc 935a e83d e800 15bc 67fb cf3d
00000220: 1127 363d d91d 1c3e c6eb 723d 2547 b13d
00000230: 768a 663d 9f1a 3c3d aed9 6b3d 1478 21bc
00000240: 31a0 0ebc fd4f 4f3e b2b4 e93b e0fc 093e
00000250: 5e34 843d c3d6 633d 2250 d1bd 3a50 b8bd
00000260: 30d3 b2bd d753 563e d484 29bd 3543 163e
00000270: bd01 d4bd e501 a8be d45e 063f dc2f c8bf
00000280: 49e0 b2bd cb50 7a3e 1238 68bd e799 3b3e
00000290: e555 d33d 40e6 89bd 18fc 6fbe cc10 203e
000002a0: 283c 563e 4008 823d 07c6 d9bd 48c9 a73f
000002b0: 74b7 bfbe 4770 643f aa8f 08bf 1f30 233f
000002c0: 2594 51bf cf7f 1e3f 23ce 15be fdb8 013d
000002d0: 7127 ab3c daf8 96bd 256c b03d 1751 8cbe
000002e0: 5ebd cf3d 8017 06bf 6735 04be 2758 283d
000002f0: bcda b8bc f0ed bd3d e49c 6d3c 6b98 bb3d
00000300: 2a82 923c 51a1 ccbb 7c70 43bd a3e2 1bbc
00000310: 0f0e da3d 9d04 3e3d b1ea 693e 976c 3a3d
00000320: ed0a 913e be1c bbbc d212 073e e503 e4bd
00000330: 126e 553e 94e4 7ebd e0cd 983e 7f91 56bd
00000340: 3772 a93e 6bdb 92bd e001 80be 409c 79be
00000350: fe9c eebe 0da4 aabe f6f4 8bbe d354 f43b
00000360: 721e 18be 4aeb 823d f47b 27bd 4af2 3a3d
00000370: 32e6 623d 4e0e cbbe c3b6 853d f9ad 843d
00000380: e58b 073e d2ff 053e ece2 093e cfd0 533d
00000390: c011 973d c47a 92be 9fbb 903c b9fd 1b3d
000003a0: e3eb c23d b39b 0d3e 3740 a13d 812a c43d
000003b0: 1bfe bb3d 03a8 7cbe 484a 1ebe e1c9 213b
000003c0: 00d5 bbbe 5925 a83e 7b54 f8be ecd0 80bf
000003d0: ff02 373d ef63 19be 32ce 4cbe 1d1b bd3d
000003e0: e6db 0bbf 79f2 8a3c 2e0d 14bf 7461 df3d
000003f0: a8e2 3f3d 6df3 88be 132f 303e 9c50 333f
