model/keypoint_classifier/keypoint_classifier.tflite (tflite, 8208 bytes, 6 tensors)

arith.constant f4 [5, 20]
0.2467148 -0.9537329 0.5700755 0.87644875 0.7171827 0.022940688 -0.95057225 -0.03700922
-0.16168341 -1.0320448 0.7016174 0.5115285 0.1281926 0.6122457 0.13959341 -0.41973627
-0.20754176 0.08429959 -0.011444733 -1.243995 0.292411 0.88871104 -1.6938074 -0.275174
-0.20468862 -0.3824885 0.72488856 0.4502102 -1.5506839 -0.16278253 -0.16362078 -0.89773536
0.49523363 -1.5801516 -1.313002 0.6699475 0.7105615 0.25088012 0.21090704 -0.8165115
0.63603896 0.015586259 -1.1910075 0.3602064 0.54115313 -1.5081365 1.0639962 0.37833524
0.50115347 0.8212572 -2.0204754 0.9292908 -2.1004362 0.3609105 0.2775748 -0.44565606
-1.0388814 -2.067344 -1.0146012 -0.12854189 -1.1154981 -0.7588558 0.89169794 -0.45758408
-0.91936135 0.023311695 -0.60298014 -0.64754176 0.45645934 0.72181946 -1.0355492 -0.91624725
0.6045441 0.74095345 -0.44075477 0.6864093 0.014418304 -0.38240224 0.41289425 0.21790661
0.1312335 -0.75598484 0.4193252 -0.8723262 -0.6432839 0.57151467 -0.6250864 -0.60178643
0.2713563 -0.97487414 0.39472014 -0.7630153 0.52224004 0.014298899 0.6361872 -1.1008953
-0.4354208 0.32957366 -0.48890632 1.1014332
00000000: cea2 7c3e d727 74bf 78f0 113f f25e 603f
00000010: 4999 373f 1cee bb3c b458 73bf fb96 17bd
00000020: 5690 25be 0b1a 84bf 339d 333f 88f3 023f
00000030: ec44 033e 22bc 1c3f 93f1 0e3e ace7 d6be
00000040: d485 54be 43a5 ac3d b082 3bbc 3a3b 9fbf
00000050: e5b6 953e 9182 633f aece d8bf 9be3 8cbe
00000060: e599 51be 88d5 c3be 4c92 393f f481 e63e
00000070: cf7c c6bf 77b0 26be 358c 27be fcd1 65bf
00000080: 438f fd3e 6842 cabf 7310 a8bf ae81 2b3f
00000090: 5ce7 353f 5c73 803e 04f8 573e e606 51bf
000000a0: 73d3 223f 825d 7f3c ef72 98bf f96c b83e
000000b0: 0389 0a3f 9e0a c1bf 0731 883f 28b5 c13e
000000c0: 984b 003f e93d 523f 784f 01c0 00e6 6d3f
000000d0: 8c6d 06c0 43c9 b83e 491e 8e3e 082d e4be
000000e0: 11fa 84bf 5d4f 04c0 74de 81bf 7ca0 03be
000000f0: a4c8 8ebf 6044 42bf 5146 643f 7648 eabe
00000100: 445b 6bbf 2bf8 be3c e85c 1abf 4cc5 25bf
00000110: 0ab5 e93e 29c9 383f e08c 84bf 2e8f 6abf
00000120: 67c3 1a3f 20af 3d3f 9caa e1be 85b8 2f3f
00000130: c03a 6c3c 3aca c3be e066 d33e e922 5f3e
00000140: 1362 063e 3988 41bf cbb1 d63e c550 5fbf
00000150: 41ae 24bf c94e 123f aa05 20bf ad0e 1abf
00000160: 37ef 8a3e 5a91 79bf c218 ca3e f854 43bf
00000170: 86b1 053f ee45 6a3c 2add 223f 23ea 8cbf
00000180: 7aef debe e1bd a83e ee51 fabe c3fb 8c3f

arith.constant1 f4 [20, 40]
0.39515695 -0.2852659 -0.6614146 -0.97282004 -0.07939599 -0.31398445 -0.020387229 -0.35716105
-0.10873372 0.30362654 -0.48564905 0.033881124 -0.24895161 0.6070379 -0.53883445 0.09177986
0.22156699 0.13198 -0.5690569 0.2230459 -0.05197267 -0.14806882 -0.13803487 -0.29741967
0.06448082 -0.21864334 -0.045169704 -0.12238022 0.4013364 -0.13737819 -0.34018856 0.06898646
-0.2006664 -0.28747874 0.34896785 -0.5351506 0.10537577 -0.57598805 0.32346874 0.17540602
0.060072444 -0.7313773 0.21405213 -0.08104454 -0.09043881 -0.3298656 -0.6750719 -0.35595557
-0.7783252 -0.7942703 -0.58916605 0.07726161 0.10965417 -0.5955178 -0.2713719 0.36034858
-0.77329856 -0.27082407 0.40500635 -0.57946193 -0.884308 -0.63294226 -0.32186896 0.5655889
-0.40811867 0.6038532 -0.46297854 -1.1746787 -0.16270684 -0.036471818 0.41551217 -0.38468572
-0.04854208 -0.6125612 -0.4002368 -0.04153974 0.22859725 0.5785215 0.45375907 -0.27414253
0.72868603 0.7898711 0.10786745 0.15768959 0.036191497 0.37780958 1.1727562 1.2880781
1.2943109 0.14940758 0.7944073 1.1856854 -0.020766653 0.2526511 0.8517809 0.49024573
0.08353056 0.44545117 0.1208943 0.27012065 -0.074485525 0.15452811 0.4502047 0.29369035
1.0254704 0.35595766 0.34204796 0.2723461 0.21780048 0.028814374 0.116840996 0.12779702
0.14884074 1.1883533 0.17880502 0.26108655 0.5206296 0.52494854 0.3643355 0.70444405
0.0007079623 -0.48350888 0.29071617 -0.020956991 0.017810637 0.11806157 0.17235409 0.14918214
0.06973351 0.2136867 -0.6388994 0.24174906 0.1548183 0.056313805 0.27523646 0.3526502
0.78931594 0.12706608 -0.29185343 0.113642365 1.0305552 0.20749609 -0.09313255 -0.78747594
0.13744594 0.6568462 -0.011393611 -0.07884522 0.17094263 0.7743511 -0.39938074 0.011826498
-0.14225028 0.033937097 0.18357939 0.12679984 0.4933097 0.46169186 0.24465272 0.11347755
-0.38251552 -0.5488162 0.28806305 0.35423115 0.26784182 0.43399492 0.12407011 0.094646476
0.27100465 -0.11214331 -0.5447775 -0.032814723 -0.04554398 -0.1601811 0.00348548 0.33982253
0.8166574 0.5252014 -0.22428943 0.05950137 0.6545898 -0.17892298 0.19652496 -1.2725061
0.14519756 0.33646098 0.19782287 -0.50858617 -0.8962875 0.675097 -0.18714613 0.21523033
0.22208415 -0.090032995 -0.017006828 0.47238997 -0.11304371 0.5022546 -0.22740737 -0.6988863
-0.20836228 0.32226795 -0.0773706 -0.27852765 0.0899709 0.08260949 0.4101697 0.02036348
0.5746679 0.5643956 -0.087228976 0.5853273 -0.3681023 -0.35686544 0.2537341 0.023116983
-0.09163468 0.13259499 0.33887917 -0.1237496 -0.06390943 0.06588913 0.17435731 0.5063513
0.40702918 -0.10956974 0.52464736 -0.124915384 0.0824061 -0.27442905 0.06295823 -0.35554296
0.5055623 0.008991474 -0.3018672 -0.09040451 -0.47801864 0.013351791 0.2621056 -0.113561176
-0.12300594 -0.697894 0.3232289 0.358855 0.036910996 0.19611672 -0.39624184 -1.2714399
-0.96766156 -0.09788998 -0.33411014 -1.256221 0.24636553 0.26549104 -0.8920228 -0.09881146
00000000: 0352 ca3e 5f0e 92be 7852 29bf bc0a 79bf
00000010: 5d9a a2bd 92c2 a0be 1e03 a7bc d0dd b6be
00000020: c9af debd f074 9b3e fea6 f8be efc6 0a3d
00000030: 2ced 7ebe d666 1b3f 0ef1 09bf 14f7 bb3d
00000040: 75e2 623e c425 073e b7ad 11bf 2566 643e
00000050: 4be1 54bd 5a9f 17be 0359 0dbe 6447 98be
00000060: 850e 843d 0ae4 5fbe de03 39bd 7ba2 fabd
00000070: f77b cd3e deac 0cbe 322d aebe c648 8d3d
00000080: 7e7b 4dbe 6a30 93be eaab b23e a1ff 08bf
00000090: 40cf d73d f473 13bf b29d a53e a39d 333e
000000a0: 860e 763d 8b3b 3bbf 7b30 5b3e aefa a5bd
000000b0: fc37 b9bd 25e4 a8be 83d1 2cbf cf3f b6be
000000c0: 5240 47bf 4c55 4bbf 96d3 16bf 563b 9e3d
000000d0: 5e92 e03d db73 18bf 42f1 8abe 9c7f b83e
000000e0: e5f6 45bf 74a9 8abe fe5c cf3e 9e57 14bf
000000f0: 0262 62bf 8108 22bf 02cc a4be 6fca 103f
00000100: eef4 d0be 2096 1a3f 860b edbe df5b 96bf
00000110: 9f9c 26be 7963 15bd 03be d43e 87f5 c4be
00000120: 0fd4 46bd d0d0 1cbf d6eb ccbe 9325 2abd
00000130: 6615 6a3e fc19 143f 1c53 e83e 695c 8cbe
00000140: 2b8b 3a3f fe34 4a3f 9ce9 dc3d 6179 213e
00000150: 893d 143d 4270 c13e e01c 963f bedf a43f
00000160: fbab a53f 4dfe 183e 475e 4b3f 8ac4 973f
00000170: d41e aabc 7c5b 813e 500e 5a3f 7d01 fb3e
00000180: 1212 ab3d 2d12 e43e 6e97 f73d 414d 8a3e
00000190: de8b 98bd 9e3c 1e3e 3b81 e63e 955e 963e
000001a0: 9d42 833f 1540 b63e e920 af3e f370 8b3e
000001b0: 1707 5f3e 1f0c ec3c 554a ef3d 39dd 023e
000001c0: b569 183e f61b 983f aa18 373e 23ad 853e
000001d0: fb47 053f 0763 063f 2f8a ba3e 7256 343f
000001e0: 8c96 393a 7a8e f7be c0d8 943e ffad abbc
000001f0: 9de7 913c 44ca f13d 977d 303e 34c3 183e
00000200: 71d0 8e3d b0d0 5a3e e98e 23bf 118d 773e
00000210: b088 1e3e 4ea9 663d cbeb 8c3e 918e b43e
00000220: 9c10 4a3f 9c1d 023e d06d 95be 54bd e83d
00000230: 3ce9 833f db79 543e 47bc bebd 0698 49bf
00000240: a1be 0c3e 1327 283f 45ac 3abc 9a79 a1bd
00000250: 960b 2f3e e03b 463f a27b ccbe eec3 413c
00000260: 0faa 11be a001 0b3d 3cfc 3b3e d1d7 013e
00000270: 1793 fc3e e062 ec3e 3e86 7a3e eb66 e83d
00000280: 13d9 c3be 387f 0cbf 007d 933e c95d b53e
00000290: 9022 893e 9534 de3e 7818 fe3d 03d6 c13d
000002a0: 1fc1 8a3e 64ab e5bd 8a76 0bbf bb68 06bd
000002b0: 538c 3abd 8406 24be a76c 643b 38fd ad3e
000002c0: 7610 513f 9973 063f 21ac 65be b5b7 733d
000002d0: 3293 273f 9637 37be d73d 493e 7be1 a2bf
000002e0: abae 143e 9d44 ac3e 1492 4a3e b432 02bf
000002f0: 1973 65bf 28d3 2c3f 3ca3 3fbe 5765 5c3e
00000300: 076a 633e 3863 b8bd e751 8bbc 19dd f13e
00000310: 7683 e7bd c293 003f 7add 68be 36ea 32bf
00000320: ec5c 55be 4e00 a53e 7a74 9ebd 2d9b 8ebe
00000330: aa42 b83d 2a2f a93d c301 d23e 50d1 a63c
00000340: 6f1d 133f 3b7c 103f 1ba5 b2bd 03d8 153f
00000350: e877 bcbe 11b7 b6be 70e9 813e d45f bd3c
00000360: f7aa bbbd fbc6 073e 9281 ad3e 6e70 fdbd
00000370: f2e2 82bd e1f0 863d b98a 323e 3da0 013f
00000380: 2166 d03e 1a66 e0bd 4a4f 063f a3d3 ffbd
00000390: 88c4 a83d f781 8cbe 3ff0 803d ba09 b6be
000003a0: 886c 013f fa50 133c 568e 9abe 0026 b9bd
000003b0: dcbe f4be 78c1 5a3c b532 863e c392 e8bd
000003c0: 8aea fbbd 2ea9 32bf 427e a53e d8bb b73e
000003d0: fc2f 173d d2d2 483e 36e0 cabe 8bbe a2bf
000003e0: abb8 77bf 8b7a c8bd 7c10 abbe dacb a0bf
000003f0: 3f47 7c3e 71ee 873e 9b5b 64bf aa5d cabd

arith.constant2 f4 [5]
-0.7012036 0.4784073 0.5397572 -0.3023936 0.029756458
00000000: 1482 33bf cdf1 f43e 872d 0a3f 55d3 9abe
00000010: d1c3 f33c

arith.constant3 f4 [20]
0.3805623 0.172154 -0.4054056 -0.0667542 0.10000503 -0.04855471 1.1947103 0.6443649
0.27586615 0.90644354 -0.10553368 0.046864606 0.12656659 -0.29196858 0.2990986 -0.40287358
0.31458187 0.37810653 -0.12284552 0.438102
00000000: 10d9 c23e 2349 303e 5391 cfbe 6db6 88bd
00000010: 70cf cc3d 4ee1 46bd 44ec 983f 19f5 243f
00000020: 543e 8d3e af0c 683f 0b22 d8bd 1af5 3f3d
00000030: ac9a 013e e87c 95be 7423 993e 7245 cebe
00000040: e010 a13e 2e97 c13e 6f96 fbbd e84e e03e

sequential_1_1/dense_3_1/BiasAdd/ReadVariableOp f4 [40]
-0.63969266 -0.7634606 -0.14301834 -0.21538761 -0.20921035 -0.9773551 -0.5734065 -0.641428
-0.56560194 -0.62584054 -0.7631357 -0.2785516 -0.13071999 -0.10665579 -0.57616365 -0.42058742
-0.40775064 -0.06682079 -0.07050866 -0.6707033 -0.48359025 -0.46095794 -0.40068573 -0.0067606345
-0.67622685 -0.5476003 -0.8582391 -0.73607314 0.37615687 -0.2774718 -0.37311235 -1.0825797
-0.5394917 -0.4819365 -0.2116421 -0.29202232 -0.45485437 -0.5536005 -0.15453935 -0.5628046
00000000: e6c2 23bf 2772 43bf 6673 12be 928e 5cbe
00000010: 3d3b 56be f233 7abf c5ca 12bf a034 24bf
00000020: 4acb 10bf 1637 20bf dc5c 43bf 519e 8ebe
00000030: 76db 05be 5a6e dabd 767f 13bf 3c57 d7be
00000040: b1c4 d0be 57d9 88bd d866 90bd 36b3 2bbf
00000050: 2499 f7be ae02 ecbe ae26 cdbe 5088 ddbb
00000060: 341d 2dbf 892f 0cbf 8fb5 5bbf 4a6f 3cbf
00000070: a297 c03e c910 8ebe 9508 bfbe f991 8abf
00000080: 211c 0abf 62c0 f6be b5b8 58be f383 95be
00000090: ace2 e8be c3b8 0dbf 903f 1ebe f613 10bf

sequential_1_1/dense_3_1/MatMul i1 [40, 42]
17 -34 34 -79 55 -62 127 -66
105 -50 6 -14 -1 2 -13 7
-15 7 -9 -2 9 -1 4 3
2 0 23 0 5 13 -43 -8
-15 8 -4 1 -29 6 -46 15
-55 16 39 -41 -114 4 -42 -5
-71 9 -29 -25 10 -72 14 -28
37 28 44 -3 10 -87 1 -27
34 42 43 21 -14 -61 -46 -85
-27 4 -15 21 -88 -55 -127 -13
-78 -29 -91 60 -26 35 -101 108
-72 36 -51 0 -57 5 47 -17
79 -50 87 -13 127 37 70 -10
9 -3 -29 7 -34 9 47 -17
13 2 -20 16 -28 11 41 -4
28 16 -31 28 -34 20 -46 -19
63 117 22 7 -67 -7 -90 -23
89 16 43 3 38 9 40 7
43 12 30 -18 88 -5 118 11
-39 -10 -12 7 11 20 -1 1
-127 -10 -97 11 -47 26 -26 17
12 -11 -10 -2 -9 7 -6 7
-5 7 -5 9 -1 9 5 6
5 5 0 11 0 9 33 3
27 -127 -3 16 -1 9 0 2
-5 4 -3 16 -1 10 -6 4
-2 9 17 -30 -44 -127 -50 -94
-39 -64 -52 -28 14 -11 19 1
18 11 15 -4 14 -9 8 1
2 5 -6 1 14 -14 3 -7
6 4 -12 -13 12 -26 8 -26
-5 -22 -20 -8 2 -9 3 -51
00000000: 11de 22b1 37c2 7fbe 69ce 06f2 ff02 f307
00000010: f107 f7fe 09ff 0403 0200 1700 050d d5f8
00000020: f108 fc01 e306 d20f c910 27d7 8e04 d6fb
00000030: b909 e3e7 0ab8 0ee4 251c 2cfd 0aa9 01e5
00000040: 222a 2b15 f2c3 d2ab e504 f115 a8c9 81f3
00000050: b2e3 a53c e623 9b6c b824 cd00 c705 2fef
00000060: 4fce 57f3 7f25 46f6 09fd e307 de09 2fef
00000070: 0d02 ec10 e40b 29fc 1c10 e11c de14 d2ed
00000080: 3f75 1607 bdf9 a6e9 5910 2b03 2609 2807
00000090: 2b0c 1eee 58fb 760b d9f6 f407 0b14 ff01
000000a0: 81f6 9f0b d11a e611 0cf5 f6fe f707 fa07
000000b0: fb07 fb09 ff09 0506 0505 000b 0009 2103
000000c0: 1b81 fd10 ff09 0002 fb04 fd10 ff0a fa04
000000d0: fe09 11e2 d481 cea2 d9c0 cce4 0ef5 1301
000000e0: 120b 0ffc 0ef7 0801 0205 fa01 0ef2 03f9
000000f0: 0604 f4f3 0ce6 08e6 fbea ecf8 02f7 03cd
